…
Type 'copyright', 'credits' or 'license' for more information
IPython 7.11.1 -- An enhanced Interactive Python. Type '?' for help.
PyDev console: using IPython 7.11.1
Python 3.6.9 (default, Nov  7 2019, 10:44:02) 
[GCC 8.3.0] on linux
In[2]: runfile('/home/abhijit/EVARepo/EVA/A7/a7.py', wdir='/home/abhijit/EVARepo/EVA/A7')
Files already downloaded and verified
Files already downloaded and verified
CUDA Available? True
128
cuda
----------------------------------------------------------------
        Layer (type)               Output Shape         Param #
================================================================
            Conv2d-1           [-1, 32, 32, 32]             864
       BatchNorm2d-2           [-1, 32, 32, 32]              64
              ReLU-3           [-1, 32, 32, 32]               0
           Dropout-4           [-1, 32, 32, 32]               0
            Conv2d-5           [-1, 32, 32, 32]             288
            Conv2d-6           [-1, 32, 32, 32]           1,056
DepthwiseSeparableConv2d-7           [-1, 32, 32, 32]               0
       BatchNorm2d-8           [-1, 32, 32, 32]              64
              ReLU-9           [-1, 32, 32, 32]               0
          Dropout-10           [-1, 32, 32, 32]               0
           Conv2d-11           [-1, 64, 30, 30]          18,432
      BatchNorm2d-12           [-1, 64, 30, 30]             128
             ReLU-13           [-1, 64, 30, 30]               0
          Dropout-14           [-1, 64, 30, 30]               0
        MaxPool2d-15           [-1, 64, 15, 15]               0
           Conv2d-16           [-1, 32, 15, 15]          18,432
      BatchNorm2d-17           [-1, 32, 15, 15]              64
             ReLU-18           [-1, 32, 15, 15]               0
          Dropout-19           [-1, 32, 15, 15]               0
           Conv2d-20           [-1, 32, 15, 15]             288
           Conv2d-21           [-1, 32, 15, 15]           1,056
DepthwiseSeparableConv2d-22           [-1, 32, 15, 15]               0
      BatchNorm2d-23           [-1, 32, 15, 15]              64
             ReLU-24           [-1, 32, 15, 15]               0
          Dropout-25           [-1, 32, 15, 15]               0
           Conv2d-26           [-1, 64, 13, 13]          18,432
      BatchNorm2d-27           [-1, 64, 13, 13]             128
             ReLU-28           [-1, 64, 13, 13]               0
          Dropout-29           [-1, 64, 13, 13]               0
        MaxPool2d-30             [-1, 64, 6, 6]               0
           Conv2d-31             [-1, 32, 6, 6]          18,432
      BatchNorm2d-32             [-1, 32, 6, 6]              64
             ReLU-33             [-1, 32, 6, 6]               0
          Dropout-34             [-1, 32, 6, 6]               0
           Conv2d-35             [-1, 32, 6, 6]             288
           Conv2d-36             [-1, 32, 6, 6]           1,056
DepthwiseSeparableConv2d-37             [-1, 32, 6, 6]               0
      BatchNorm2d-38             [-1, 32, 6, 6]              64
             ReLU-39             [-1, 32, 6, 6]               0
          Dropout-40             [-1, 32, 6, 6]               0
           Conv2d-41             [-1, 64, 2, 2]          18,432
      BatchNorm2d-42             [-1, 64, 2, 2]             128
             ReLU-43             [-1, 64, 2, 2]               0
          Dropout-44             [-1, 64, 2, 2]               0
        AvgPool2d-45             [-1, 64, 1, 1]               0
           Linear-46                   [-1, 10]             640
================================================================
Total params: 98,464
Trainable params: 98,464
Non-trainable params: 0
----------------------------------------------------------------
Input size (MB): 0.01
Forward/backward pass size (MB): 5.36
Params size (MB): 0.38
Estimated Total Size (MB): 5.75
----------------------------------------------------------------
EPOCH: 0
  0%|          | 0/391 [00:00<?, ?it/s]/home/abhijit/.virtualenvs/dl4cv/lib/python3.6/site-packages/torch/nn/_reduction.py:43: UserWarning: size_average and reduce args will be deprecated, please use reduction='sum' instead.
…
