…
IPython 7.11.1 -- An enhanced Interactive Python. Type '?' for help.
PyDev console: using IPython 7.11.1
Python 3.6.9 (default, Nov  7 2019, 10:44:02) 
[GCC 8.3.0] on linux
In[2]: runfile('/home/abhijit/EVARepo/EVA/A7/a7.py', wdir='/home/abhijit/EVARepo/EVA/A7')
Backend TkAgg is interactive backend. Turning interactive mode on.
Files already downloaded and verified
Files already downloaded and verified
CUDA Available? True
256
cuda
----------------------------------------------------------------
        Layer (type)               Output Shape         Param #
================================================================
            Conv2d-1           [-1, 32, 32, 32]             864
       BatchNorm2d-2           [-1, 32, 32, 32]              64
              ReLU-3           [-1, 32, 32, 32]               0
           Dropout-4           [-1, 32, 32, 32]               0
            Conv2d-5           [-1, 64, 32, 32]          18,432
       BatchNorm2d-6           [-1, 64, 32, 32]             128
              ReLU-7           [-1, 64, 32, 32]               0
           Dropout-8           [-1, 64, 32, 32]               0
            Conv2d-9           [-1, 64, 30, 30]          36,864
      BatchNorm2d-10           [-1, 64, 30, 30]             128
             ReLU-11           [-1, 64, 30, 30]               0
          Dropout-12           [-1, 64, 30, 30]               0
        MaxPool2d-13           [-1, 64, 15, 15]               0
           Conv2d-14           [-1, 32, 15, 15]          18,432
      BatchNorm2d-15           [-1, 32, 15, 15]              64
             ReLU-16           [-1, 32, 15, 15]               0
          Dropout-17           [-1, 32, 15, 15]               0
           Conv2d-18           [-1, 64, 15, 15]          18,432
      BatchNorm2d-19           [-1, 64, 15, 15]             128
             ReLU-20           [-1, 64, 15, 15]               0
          Dropout-21           [-1, 64, 15, 15]               0
           Conv2d-22           [-1, 64, 13, 13]          36,864
      BatchNorm2d-23           [-1, 64, 13, 13]             128
             ReLU-24           [-1, 64, 13, 13]               0
          Dropout-25           [-1, 64, 13, 13]               0
        MaxPool2d-26             [-1, 64, 6, 6]               0
           Conv2d-27             [-1, 32, 6, 6]          18,432
      BatchNorm2d-28             [-1, 32, 6, 6]              64
             ReLU-29             [-1, 32, 6, 6]               0
          Dropout-30             [-1, 32, 6, 6]               0
           Conv2d-31             [-1, 64, 6, 6]          18,432
      BatchNorm2d-32             [-1, 64, 6, 6]             128
             ReLU-33             [-1, 64, 6, 6]               0
          Dropout-34             [-1, 64, 6, 6]               0
           Conv2d-35             [-1, 64, 2, 2]          36,864
      BatchNorm2d-36             [-1, 64, 2, 2]             128
             ReLU-37             [-1, 64, 2, 2]               0
          Dropout-38             [-1, 64, 2, 2]               0
        AvgPool2d-39             [-1, 64, 1, 1]               0
           Linear-40                   [-1, 10]             640
================================================================
Total params: 205,216
Trainable params: 205,216
Non-trainable params: 0
----------------------------------------------------------------
Input size (MB): 0.01
Forward/backward pass size (MB): 5.99
Params size (MB): 0.78
Estimated Total Size (MB): 6.78
----------------------------------------------------------------
EPOCH: 0
  0%|          | 0/196 [00:00<?, ?it/s]/home/abhijit/.virtualenvs/dl4cv/lib/python3.6/site-packages/torch/nn/_reduction.py:43: UserWarning: size_average and reduce args will be deprecated, please use reduction='sum' instead.
…
